…
1131/1131 [==============================] - 123s 108ms/step - loss: 0.2168 - accuracy: 0.9619 - val_loss: 14.6413 - val_accuracy: 0.0472
Epoch 18/30
1131/1131 [==============================] - 125s 110ms/step - loss: 0.2556 - accuracy: 0.9512 - val_loss: 17.4886 - val_accuracy: 0.0472
Epoch 18: early stopping



[INFO] Tempo de execução da CNN: 176.1 min
[INFO] Summary: 
Model: "sequential_3"
_________________________________________________________________
 Layer (type)                Output Shape              Param #   
=================================================================
 conv2d_9 (Conv2D)           (None, 64, 64, 32)        896       
                                                                 
 leaky_re_lu_9 (LeakyReLU)   (None, 64, 64, 32)        0         
                                                                 
 max_pooling2d_9 (MaxPooling  (None, 32, 32, 32)       0         
 2D)                                                             
                                                                 
 conv2d_10 (Conv2D)          (None, 30, 30, 32)        9248      
                                                                 
 leaky_re_lu_10 (LeakyReLU)  (None, 30, 30, 32)        0         
                                                                 
 max_pooling2d_10 (MaxPoolin  (None, 15, 15, 32)       0         
 g2D)                                                            
                                                                 
 conv2d_11 (Conv2D)          (None, 13, 13, 64)        18496     
                                                                 
 leaky_re_lu_11 (LeakyReLU)  (None, 13, 13, 64)        0         
                                                                 
 max_pooling2d_11 (MaxPoolin  (None, 6, 6, 64)         0         
 g2D)                                                            
                                                                 
 flatten_3 (Flatten)         (None, 2304)              0         
                                                                 
 dense_6 (Dense)             (None, 256)               590080    
                                                                 
 dropout_3 (Dropout)         (None, 256)               0         
                                                                 
 dense_7 (Dense)             (None, 22)                5654      
                                                                 
=================================================================
Total params: 624,374
Trainable params: 624,374
Non-trainable params: 0
